2_deploy/data/micro_kws_student_quantized.tflite (tflite, 33688 bytes, 6 tensors)

micro_kws_student2/conv1/Conv2D i1 [16, 8, 8, 1]
0	0xc8	-56
1	0x2d	45
2	0x3b	59
3	0x46	70
4	0x0d	13
5	0xca	-54
6	0xe4	-28
7	0xe0	-32
8	0x04	4
9	0x5e	94
10	0x46	70
11	0x21	33
12	0xf0	-16
13	0xb0	-80
14	0xcf	-49
15	0xeb	-21
16	0x3b	59
17	0x7f	127
18	0x1f	31
19	0xe5	-27
20	0xc5	-59
21	0xa4	-92
22	0xe3	-29
23	0xf9	-7
24	0x2c	44
25	0x61	97
26	0xeb	-21
27	0xb2	-78
28	0xd3	-45
29	0xc8	-56
30	0x00	0
31	0x2a	42
32	0x1f	31
33	0x2d	45
34	0xe8	-24
35	0xac	-84
36	0xe5	-27
37	0xed	-19
38	0x10	16
39	0x31	49
40	0x2b	43
41	0xfa	-6
42	0xc7	-57
43	0xd4	-44
44	0x08	8
45	0xf7	-9
46	0x15	21
47	0x2a	42
48	0x25	37
49	0xfa	-6
50	0xec	-20
51	0xe4	-28
52	0xf4	-12
53	0xf4	-12
54	0x09	9
55	0x13	19
56	0x1e	30
57	0xc8	-56
58	0xe1	-31
59	0xa4	-92
60	0xe1	-31
61	0xd4	-44
62	0xe3	-29
63	0xf6	-10
64	0x0f	15
65	0x0c	12
66	0x13	19
67	0x0d	13
68	0xdd	-35
69	0xf5	-11
70	0xe1	-31
71	0xf9	-7
72	0xf7	-9
73	0x17	23
74	0xe4	-28
75	0x19	25
76	0xc0	-64
77	0xdf	-33
78	0xf2	-14
79	0xe8	-24
80	0x2d	45
81	0x25	37
82	0xe6	-26
83	0x16	22
84	0xa7	-89
85	0xad	-83
86	0xb6	-74
87	0xdb	-37
88	0x46	70
89	0x67	103
90	0x3b	59
91	0x54	84
92	0xfc	-4
93	0xc3	-61
94	0xba	-70
95	0xbc	-68
96	0x10	16
97	0x31	49
98	0x2d	45
99	0x7f	127
100	0x0d	13
101	0x0c	12
102	0xd6	-42
103	0xe5	-27
104	0xfd	-3
105	0xef	-17
106	0x0d	13
107	0x19	25
108	0x1f	31
109	0x3a	58
110	0x20	32
111	0xff	-1
112	0xff	-1
113	0xcd	-51
114	0xed	-19
115	0x02	2
116	0x41	65
117	0x28	40
118	0x12	18
119	0xfd	-3
120	0xf5	-11
121	0xce	-50
122	0xc5	-59
123	0xd7	-41
124	0x0e	14
125	0x1f	31
126	0x2b	43
127	0x17	23
128	0x11	17
129	0xec	-20
130	0x15	21
131	0xa1	-95
132	0x1d	29
133	0x84	-124
134	0xdb	-37
135	0xe0	-32
136	0x0e	14
137	0xcd	-51
138	0x40	64
139	0xbf	-65
140	0xfe	-2
141	0xd5	-43
142	0xdc	-36
143	0xf2	-14
144	0x1d	29
145	0x13	19
146	0xf8	-8
147	0xe1	-31
148	0xeb	-21
149	0x18	24
150	0x11	17
151	0xc8	-56
152	0x54	84
153	0x1d	29
154	0x4c	76
155	0x27	39
156	0x29	41
157	0x2f	47
158	0x2b	43
159	0xff	-1
160	0x19	25
161	0x9f	-97
162	0x26	38
163	0x16	22
164	0x1c	28
165	0xad	-83
166	0x09	9
167	0xef	-17
168	0x31	49
169	0xa8	-88
170	0x3a	58
171	0x22	34
172	0xf9	-7
173	0xc9	-55
174	0x14	20
175	0xba	-70
176	0x20	32
177	0xd4	-44
178	0xc8	-56
179	0x8b	-117
180	0xd7	-41
181	0x81	-127
182	0x1f	31
183	0xf3	-13
184	0xa8	-88
185	0xa6	-90
186	0x3c	60
187	0xd9	-39
188	0xf8	-8
189	0x2a	42
190	0x1d	29
191	0xae	-82
192	0x48	72
193	0x19	25
194	0x04	4
195	0x39	57
196	0x1d	29
197	0xfb	-5
198	0xf0	-16
199	0xd9	-39
200	0x25	37
201	0xeb	-21
202	0xc9	-55
203	0x09	9
204	0xc7	-57
205	0xba	-70
206	0xd1	-47
207	0xca	-54
208	0x2a	42
209	0xe6	-26
210	0x1a	26
211	0x27	39
212	0xf9	-7
213	0xe4	-28
214	0xdd	-35
215	0xef	-17
216	0x4c	76
217	0x47	71
218	0x0d	13
219	0x2d	45
220	0xcc	-52
221	0xec	-20
222	0xf6	-10
223	0xd0	-48
224	0x5a	90
225	0xd4	-44
226	0x1f	31
227	0x13	19
228	0xda	-38
229	0xd0	-48
230	0xe1	-31
231	0xf1	-15
232	0x3e	62
233	0x54	84
234	0x68	104
235	0xae	-82
236	0xf3	-13
237	0xa5	-91
238	0xb5	-75
239	0xef	-17
240	0x5e	94
241	0x4d	77
242	0x78	120
243	0x1c	28
244	0x06	6
245	0x81	-127
246	0xb3	-77
247	0xe0	-32
248	0x53	83
249	0x28	40
250	0x61	97
251	0x5b	91
252	0x08	8
253	0xc1	-63
254	0xb7	-73
255	0xa8	-88

micro_kws_student2/conv2/Conv2D i1 [12, 6, 6, 16]
0	0x00	0
1	0x1a	26
2	0xca	-54
3	0x05	5
4	0x92	-110
5	0xc3	-61
6	0x21	33
7	0xcc	-52
8	0x5f	95
9	0xf4	-12
10	0x3a	58
11	0xd7	-41
12	0x4f	79
13	0xb1	-79
14	0x19	25
15	0xca	-54
16	0x38	56
17	0x12	18
18	0x07	7
19	0xd8	-40
20	0x8c	-116
21	0x38	56
22	0x3e	62
23	0xbf	-65
24	0x1e	30
25	0xdb	-37
26	0xf9	-7
27	0xb9	-71
28	0x15	21
29	0xf0	-16
30	0x24	36
31	0xb4	-76
32	0x2b	43
33	0x07	7
34	0xe9	-23
35	0x0a	10
36	0x8d	-115
37	0x20	32
38	0x12	18
39	0x08	8
40	0xfb	-5
41	0xe5	-27
42	0xf9	-7
43	0xc3	-61
44	0x0c	12
45	0x08	8
46	0x31	49
47	0x01	1
48	0x6b	107
49	0xd9	-39
50	0xcf	-49
51	0xe2	-30
52	0xb9	-71
53	0x12	18
54	0x09	9
55	0x21	33
56	0xd6	-42
57	0x17	23
58	0x18	24
59	0x13	19
60	0xfd	-3
61	0x1d	29
62	0x20	32
63	0xf1	-15
64	0xf3	-13
65	0xea	-22
66	0xfb	-5
67	0xbd	-67
68	0xf6	-10
69	0x1b	27
70	0xec	-20
71	0x00	0
72	0xf6	-10
73	0xca	-54
74	0x1f	31
75	0x0a	10
76	0x14	20
77	0x44	68
78	0x4a	74
79	0xff	-1
80	0x75	117
81	0x0f	15
82	0xee	-18
83	0xc9	-55
84	0xd6	-42
85	0xcd	-51
86	0xeb	-21
87	0xf7	-9
88	0xdf	-33
89	0xff	-1
90	0xee	-18
91	0xd6	-42
92	0x06	6
93	0x14	20
94	0x20	32
95	0x0f	15
96	0xf1	-15
97	0x2a	42
98	0xfa	-6
99	0x00	0
100	0xbe	-66
101	0xde	-34
102	0x27	39
103	0x27	39
104	0xf3	-13
105	0x17	23
106	0xf9	-7
107	0xc3	-61
108	0xb0	-80
109	0xe2	-30
110	0x31	49
111	0xf1	-15
112	0x53	83
113	0x14	20
114	0x0d	13
115	0x06	6
116	0xc3	-61
117	0xff	-1
118	0x41	65
119	0x29	41
120	0x16	22
121	0xe4	-28
122	0xfe	-2
123	0xd9	-39
124	0xa0	-96
125	0xd6	-42
126	0x1f	31
127	0xde	-34
128	0x4d	77
129	0x0d	13
130	0xf7	-9
131	0x07	7
132	0xc1	-63
133	0xff	-1
134	0x0e	14
135	0x3a	58
136	0xee	-18
137	0x05	5
138	0xe4	-28
139	0xd5	-43
140	0xcf	-49
141	0xfc	-4
142	0x3e	62
143	0xf0	-16
144	0x6d	109
145	0x19	25
146	0xde	-34
147	0x07	7
148	0xb1	-79
149	0x08	8
150	0xf8	-8
151	0xe3	-29
152	0xe6	-26
153	0x3e	62
154	0xea	-22
155	0x05	5
156	0xcc	-52
157	0x0f	15
158	0x13	19
159	0xc0	-64
160	0xee	-18
161	0xdf	-33
162	0x12	18
163	0xd2	-46
164	0xef	-17
165	0x31	49
166	0x2f	47
167	0xf6	-10
168	0x04	4
169	0xc9	-55
170	0xe8	-24
171	0x1a	26
172	0xe9	-23
173	0x1e	30
174	0x08	8
175	0xbb	-69
176	0x47	71
177	0xf5	-11
178	0x1a	26
179	0xf2	-14
180	0xda	-38
181	0xec	-20
182	0x1f	31
183	0x16	22
184	0xee	-18
185	0x13	19
186	0x02	2
187	0xcf	-49
188	0xf8	-8
189	0x1f	31
190	0x0e	14
191	0xc4	-60
192	0x1f	31
193	0x04	4
194	0x03	3
195	0xf0	-16
196	0xc7	-57
197	0xc3	-61
198	0x08	8
199	0x59	89
200	0x05	5
201	0x32	50
202	0xb0	-80
203	0xd7	-41
204	0xe1	-31
205	0xee	-18
206	0xf7	-9
207	0xee	-18
208	0x35	53
209	0x13	19
210	0xed	-19
211	0x0f	15
212	0xa4	-92
213	0xdd	-35
214	0x19	25
215	0x1d	29
216	0x1f	31
217	0xdb	-37
218	0xd4	-44
219	0xd6	-42
220	0xd3	-45
221	0xf6	-10
222	0x00	0
223	0xc9	-55
224	0x17	23
225	0x09	9
226	0x12	18
227	0x00	0
228	0xe0	-32
229	0xca	-54
230	0xce	-50
231	0xeb	-21
232	0x71	113
233	0x20	32
234	0xd6	-42
235	0xe6	-26
236	0x0f	15
237	0xf7	-9
238	0xf5	-11
239	0xfe	-2
240	0x34	52
241	0xef	-17
242	0x36	54
243	0x11	17
244	0xb1	-79
245	0xe3	-29
246	0xf3	-13
247	0xf2	-14
248	0x09	9
249	0x3f	63
250	0xfe	-2
251	0xed	-19
252	0xfc	-4
253	0x14	20
254	0x33	51
255	0x12	18

micro_kws_student2/conv3/Conv2D i1 [16, 4, 4, 12]
0	0xff	-1
1	0x21	33
2	0x2e	46
3	0xde	-34
4	0x12	18
5	0x17	23
6	0xe4	-28
7	0xc7	-57
8	0xf5	-11
9	0xe7	-25
10	0x04	4
11	0x13	19
12	0xd2	-46
13	0xd5	-43
14	0x07	7
15	0x3a	58
16	0x1d	29
17	0xf1	-15
18	0xf7	-9
19	0x11	17
20	0x18	24
21	0xed	-19
22	0x17	23
23	0xff	-1
24	0xf6	-10
25	0x45	69
26	0xd8	-40
27	0xe6	-26
28	0x38	56
29	0xea	-22
30	0x18	24
31	0xbf	-65
32	0x00	0
33	0x10	16
34	0x0a	10
35	0xd4	-44
36	0x0b	11
37	0xef	-17
38	0x0d	13
39	0xe4	-28
40	0x08	8
41	0x17	23
42	0x03	3
43	0xe8	-24
44	0xf3	-13
45	0xe5	-27
46	0xcf	-49
47	0x03	3
48	0xbc	-68
49	0x0d	13
50	0x11	17
51	0xc7	-57
52	0x1a	26
53	0x27	39
54	0xdc	-36
55	0xc4	-60
56	0xd9	-39
57	0x19	25
58	0x39	57
59	0x42	66
60	0xca	-54
61	0xe4	-28
62	0x12	18
63	0x29	41
64	0x01	1
65	0x00	0
66	0xfd	-3
67	0x14	20
68	0x39	57
69	0x01	1
70	0xe2	-30
71	0x33	51
72	0xc8	-56
73	0xf6	-10
74	0x11	17
75	0x10	16
76	0xdd	-35
77	0xc0	-64
78	0x18	24
79	0x9c	-100
80	0x14	20
81	0x18	24
82	0xf1	-15
83	0x22	34
84	0xe6	-26
85	0x2f	47
86	0x08	8
87	0xcf	-49
88	0xe9	-23
89	0xfe	-2
90	0x07	7
91	0xff	-1
92	0xea	-22
93	0x2a	42
94	0xf4	-12
95	0xe8	-24
96	0x29	41
97	0xd2	-46
98	0x38	56
99	0x1d	29
100	0x21	33
101	0xf9	-7
102	0xcb	-53
103	0xf4	-12
104	0xa3	-93
105	0xd8	-40
106	0x0a	10
107	0x27	39
108	0x00	0
109	0xff	-1
110	0xce	-50
111	0xfd	-3
112	0x07	7
113	0x40	64
114	0xb0	-80
115	0xef	-17
116	0xdd	-35
117	0x30	48
118	0xca	-54
119	0x0f	15
120	0xf1	-15
121	0xb9	-71
122	0x2a	42
123	0x19	25
124	0x06	6
125	0xe5	-27
126	0x08	8
127	0x95	-107
128	0x2f	47
129	0x1d	29
130	0x03	3
131	0xdb	-37
132	0xd5	-43
133	0x37	55
134	0x33	51
135	0x0f	15
136	0xdf	-33
137	0xa4	-92
138	0x13	19
139	0x01	1
140	0xfc	-4
141	0x00	0
142	0xfa	-6
143	0xdc	-36
144	0x38	56
145	0xc4	-60
146	0xfd	-3
147	0x35	53
148	0x0d	13
149	0xf2	-14
150	0xac	-84
151	0x09	9
152	0xb7	-73
153	0xe1	-31
154	0x3f	63
155	0x06	6
156	0xdc	-36
157	0x81	-127
158	0x1a	26
159	0x0f	15
160	0x1b	27
161	0x53	83
162	0xc0	-64
163	0x09	9
164	0xf0	-16
165	0xff	-1
166	0xd3	-45
167	0x08	8
168	0x20	32
169	0xc0	-64
170	0x34	52
171	0xf7	-9
172	0xdc	-36
173	0x1a	26
174	0x09	9
175	0xea	-22
176	0x01	1
177	0xe1	-31
178	0x36	54
179	0x07	7
180	0xf2	-14
181	0x32	50
182	0x14	20
183	0x0b	11
184	0xe9	-23
185	0xdc	-36
186	0x01	1
187	0x12	18
188	0x13	19
189	0x03	3
190	0xec	-20
191	0xac	-84
192	0xfc	-4
193	0xeb	-21
194	0xf0	-16
195	0x06	6
196	0xfb	-5
197	0xad	-83
198	0xff	-1
199	0xee	-18
200	0xf1	-15
201	0x1e	30
202	0x01	1
203	0x35	53
204	0x0f	15
205	0x00	0
206	0x0c	12
207	0x0a	10
208	0xfd	-3
209	0xd3	-45
210	0xec	-20
211	0xff	-1
212	0xe9	-23
213	0x01	1
214	0xf4	-12
215	0x1b	27
216	0x04	4
217	0xd2	-46
218	0x00	0
219	0x25	37
220	0x0f	15
221	0x24	36
222	0x04	4
223	0xd5	-43
224	0xff	-1
225	0x16	22
226	0xea	-22
227	0xef	-17
228	0x1b	27
229	0xe1	-31
230	0x14	20
231	0xed	-19
232	0xf4	-12
233	0xf8	-8
234	0x07	7
235	0xda	-38
236	0x22	34
237	0x06	6
238	0xa5	-91
239	0xbe	-66
240	0x07	7
241	0xd2	-46
242	0x28	40
243	0x0f	15
244	0x00	0
245	0xba	-70
246	0xd8	-40
247	0xf5	-11
248	0xac	-84
249	0x16	22
250	0xfa	-6
251	0x09	9
252	0xf1	-15
253	0xfd	-3
254	0x24	36
255	0x06	6

micro_kws_student2/fc1/MatMul i1 [32, 480] scale=0.004838524 zero_point=0
0	0x0a	0.04838524
1	0x11	0.08225491
2	0xe5	-0.13064015
3	0xe8	-0.11612457
4	0x03	0.014515571
5	0x01	0.004838524
6	0xc5	-0.2854729
7	0xee	-0.08709343
8	0xe5	-0.13064015
9	0x09	0.043546714
10	0xeb	-0.101609
11	0x0b	0.053223763
12	0xf2	-0.06773934
13	0xee	-0.08709343
14	0x23	0.16934834
15	0x2c	0.21289505
16	0xd2	-0.2225721
17	0x13	0.091931954
18	0x0e	0.06773934
19	0xe6	-0.12580162
20	0x15	0.101609
21	0xe6	-0.12580162
22	0xf8	-0.03870819
23	0x08	0.03870819
24	0xfc	-0.019354096
25	0x03	0.014515571
26	0x31	0.23708767
27	0x27	0.18870243
28	0x0f	0.07257786
29	0xdf	-0.15967129
30	0xe9	-0.11128605
31	0x08	0.03870819
32	0x0b	0.053223763
33	0x16	0.106447525
34	0xe2	-0.14515571
35	0x1e	0.14515571
36	0xef	-0.08225491
37	0x06	0.029031143
38	0xe7	-0.1209631
39	0x1b	0.13064015
40	0x0a	0.04838524
41	0xf5	-0.053223763
42	0xff	-0.004838524
43	0x06	0.029031143
44	0xfe	-0.009677048
45	0x3d	0.29514995
46	0x1d	0.14031719
47	0xf2	-0.06773934
48	0x01	0.004838524
49	0xda	-0.18386391
50	0xf4	-0.058062285
51	0x0e	0.06773934
52	0x17	0.11128605
53	0x1e	0.14515571
54	0x0f	0.07257786
55	0xd4	-0.21289505
56	0x0b	0.053223763
57	0x0b	0.053223763
58	0xde	-0.16450982
59	0x2f	0.22741063
60	0x04	0.019354096
61	0x1a	0.12580162
62	0xe7	-0.1209631
63	0xeb	-0.101609
64	0x17	0.11128605
65	0x0c	0.058062285
66	0x00	0.0
67	0x28	0.19354096
68	0x14	0.09677048
69	0x10	0.07741638
70	0xfa	-0.029031143
71	0x1b	0.13064015
72	0x0a	0.04838524
73	0xf2	-0.06773934
74	0x07	0.03386967
75	0x14	0.09677048
76	0xd5	-0.20805652
77	0xef	-0.08225491
78	0x07	0.03386967
79	0x3d	0.29514995
80	0xf7	-0.043546714
81	0x0d	0.06290081
82	0xff	-0.004838524
83	0x1e	0.14515571
84	0xd4	-0.21289505
85	0xd9	-0.18870243
86	0xde	-0.16450982
87	0xe1	-0.14999424
88	0xfc	-0.019354096
89	0x0d	0.06290081
90	0x02	0.009677048
91	0xfa	-0.029031143
92	0xe3	-0.14031719
93	0xd2	-0.2225721
94	0x23	0.16934834
95	0x28	0.19354096
96	0xc5	-0.2854729
97	0x0f	0.07257786
98	0x11	0.08225491
99	0xdf	-0.15967129
100	0x10	0.07741638
101	0x20	0.15483277
102	0x03	0.014515571
103	0xfc	-0.019354096
104	0xe0	-0.15483277
105	0x0d	0.06290081
106	0x28	0.19354096
107	0x2e	0.2225721
108	0x01	0.004838524
109	0xef	-0.08225491
110	0xec	-0.09677048
111	0x08	0.03870819
112	0xe8	-0.11612457
113	0x0c	0.058062285
114	0xf6	-0.04838524
115	0x03	0.014515571
116	0xe9	-0.11128605
117	0x0c	0.058062285
118	0xf6	-0.04838524
119	0x05	0.02419262
120	0xf6	-0.04838524
121	0xfa	-0.029031143
122	0x07	0.03386967
123	0x00	0.0
124	0xf3	-0.06290081
125	0x0a	0.04838524
126	0x0d	0.06290081
127	0xe8	-0.11612457
128	0x0d	0.06290081
129	0x0e	0.06773934
130	0xf6	-0.04838524
131	0xfe	-0.009677048
132	0xf5	-0.053223763
133	0x2d	0.21773358
134	0xf3	-0.06290081
135	0xd4	-0.21289505
136	0xf3	-0.06290081
137	0x08	0.03870819
138	0xe1	-0.14999424
139	0x1a	0.12580162
140	0x0e	0.06773934
141	0x26	0.18386391
142	0xfd	-0.014515571
143	0xdb	-0.17902538
144	0xef	-0.08225491
145	0x00	0.0
146	0x0a	0.04838524
147	0xda	-0.18386391
148	0x09	0.043546714
149	0xed	-0.091931954
150	0x08	0.03870819
151	0x0b	0.053223763
152	0xe1	-0.14999424
153	0xf8	-0.03870819
154	0x1b	0.13064015
155	0xfc	-0.019354096
156	0xf6	-0.04838524
157	0xe3	-0.14031719
158	0x03	0.014515571
159	0xf1	-0.07257786
160	0xcd	-0.24676472
161	0x07	0.03386967
162	0x07	0.03386967
163	0x1d	0.14031719
164	0xfc	-0.019354096
165	0xed	-0.091931954
166	0xb5	-0.3628893
167	0xd4	-0.21289505
168	0xf3	-0.06290081
169	0x1e	0.14515571
170	0x1a	0.12580162
171	0x07	0.03386967
172	0xe5	-0.13064015
173	0xef	-0.08225491
174	0x33	0.24676472
175	0x10	0.07741638
176	0xb4	-0.36772782
177	0x13	0.091931954
178	0xfd	-0.014515571
179	0x03	0.014515571
180	0xf6	-0.04838524
181	0x38	0.27095735
182	0x25	0.17902538
183	0x17	0.11128605
184	0xfa	-0.029031143
185	0xf2	-0.06773934
186	0x21	0.15967129
187	0x1e	0.14515571
188	0xef	-0.08225491
189	0xdb	-0.17902538
190	0xfd	-0.014515571
191	0x18	0.11612457
192	0xfc	-0.019354096
193	0x1d	0.14031719
194	0x01	0.004838524
195	0xfe	-0.009677048
196	0xeb	-0.101609
197	0xe1	-0.14999424
198	0xf9	-0.03386967
199	0x06	0.029031143
200	0x02	0.009677048
201	0xea	-0.106447525
202	0x31	0.23708767
203	0xfe	-0.009677048
204	0x10	0.07741638
205	0x04	0.019354096
206	0x14	0.09677048
207	0xee	-0.08709343
208	0x46	0.3386967
209	0x14	0.09677048
210	0xfb	-0.02419262
211	0xe5	-0.13064015
212	0x00	0.0
213	0x07	0.03386967
214	0xee	-0.08709343
215	0xf7	-0.043546714
216	0xf9	-0.03386967
217	0x01	0.004838524
218	0xf5	-0.053223763
219	0xeb	-0.101609
220	0x27	0.18870243
221	0x16	0.106447525
222	0xfb	-0.02419262
223	0x08	0.03870819
224	0xf3	-0.06290081
225	0xeb	-0.101609
226	0xf9	-0.03386967
227	0xe4	-0.13547868
228	0x0f	0.07257786
229	0xee	-0.08709343
230	0xfc	-0.019354096
231	0x1a	0.12580162
232	0x14	0.09677048
233	0xf5	-0.053223763
234	0x29	0.19837949
235	0xf8	-0.03870819
236	0xfd	-0.014515571
237	0xea	-0.106447525
238	0x15	0.101609
239	0x13	0.091931954
240	0xe6	-0.12580162
241	0x14	0.09677048
242	0x0b	0.053223763
243	0x2f	0.22741063
244	0x15	0.101609
245	0xd5	-0.20805652
246	0xd3	-0.21773358
247	0xd3	-0.21773358
248	0xd7	-0.19837949
249	0x0c	0.058062285
250	0x2f	0.22741063
251	0x00	0.0
252	0xd8	-0.19354096
253	0xfd	-0.014515571
254	0x3f	0.304827
255	0x27	0.18870243

micro_kws_student2/fc2/MatMul i1 [16, 32] scale=0.0049849185 zero_point=0
0	0x0f	0.07477378
1	0x15	0.10468329
2	0x49	0.36389905
3	0x4b	0.37386888
4	0x1d	0.14456263
5	0xd3	-0.22432134
6	0xe1	-0.15453248
7	0x0f	0.07477378
8	0x27	0.19441183
9	0x26	0.1894269
10	0xf0	-0.079758696
11	0xd5	-0.21435149
12	0x1a	0.12960789
13	0x03	0.014954755
14	0xeb	-0.10468329
15	0xf2	-0.06978886
16	0x34	0.25921577
17	0x24	0.17945707
18	0xe4	-0.13957772
19	0xe9	-0.114653125
20	0x41	0.3240197
21	0xb0	-0.3987935
22	0x05	0.024924593
23	0x3e	0.30906495
24	0x3d	0.30408004
25	0x28	0.19939674
26	0x02	0.009969837
27	0x2c	0.21933642
28	0xf7	-0.044864267
29	0xce	-0.24924593
30	0xca	-0.2691856
31	0xd6	-0.20936657
32	0xd9	-0.19441183
33	0xb8	-0.35891414
34	0x25	0.18444198
35	0x23	0.17447215
36	0xa7	-0.44365776
37	0x2b	0.21435149
38	0x2a	0.20936657
39	0xb5	-0.37386888
40	0xd3	-0.22432134
41	0x2e	0.22930625
42	0xbd	-0.33398953
43	0xda	-0.1894269
44	0x18	0.11963804
45	0xc0	-0.31903479
46	0x2d	0.22432134
47	0xd3	-0.22432134
48	0xe3	-0.14456263
49	0xcf	-0.24426101
50	0xf0	-0.079758696
51	0xfd	-0.014954755
52	0x44	0.33897445
53	0x28	0.19939674
54	0x1e	0.14954756
55	0x0d	0.06480394
56	0xc6	-0.28912526
57	0xc2	-0.30906495
58	0x0a	0.049849186
59	0xe3	-0.14456263
60	0xd3	-0.22432134
61	0xf5	-0.054834105
62	0xba	-0.3489443
63	0xfe	-0.009969837
64	0xe5	-0.1345928
65	0xd3	-0.22432134
66	0x1c	0.13957772
67	0xe1	-0.15453248
68	0x44	0.33897445
69	0xd8	-0.19939674
70	0x08	0.039879348
71	0xd5	-0.21435149
72	0xda	-0.1894269
73	0x30	0.23927608
74	0x3f	0.31404987
75	0xf1	-0.07477378
76	0x10	0.079758696
77	0xf8	-0.039879348
78	0x43	0.33398953
79	0x2e	0.22930625
80	0xce	-0.24924593
81	0x3e	0.30906495
82	0xfc	-0.019939674
83	0x02	0.009969837
84	0x0b	0.054834105
85	0xf4	-0.05981902
86	0xf8	-0.039879348
87	0x25	0.18444198
88	0xed	-0.09471345
89	0x47	0.35392922
90	0xe8	-0.11963804
91	0xfe	-0.009969837
92	0x46	0.3489443
93	0xe4	-0.13957772
94	0x17	0.114653125
95	0xdc	-0.17945707
96	0xe8	-0.11963804
97	0x0f	0.07477378
98	0x2c	0.21933642
99	0x29	0.20438166
100	0x2b	0.21435149
101	0x03	0.014954755
102	0x01	0.0049849185
103	0xd9	-0.19441183
104	0xff	-0.0049849185
105	0xc8	-0.27915543
106	0x25	0.18444198
107	0xf3	-0.06480394
108	0x16	0.10966821
109	0x12	0.089728534
110	0x2b	0.21435149
111	0xc9	-0.27417052
112	0xee	-0.089728534
113	0x07	0.03489443
114	0x19	0.12462296
115	0x22	0.16948722
116	0x37	0.27417052
117	0xed	-0.09471345
118	0x33	0.25423086
119	0x52	0.40876332
120	0x1a	0.12960789
121	0xda	-0.1894269
122	0xe8	-0.11963804
123	0x02	0.009969837
124	0x3f	0.31404987
125	0xf4	-0.05981902
126	0x35	0.2642007
127	0x13	0.09471345
128	0xfd	-0.014954755
129	0xc2	-0.30906495
130	0xdc	-0.17945707
131	0xb8	-0.35891414
132	0xdf	-0.16450231
133	0xfc	-0.019939674
134	0xcf	-0.24426101
135	0x29	0.20438166
136	0xe2	-0.14954756
137	0xd4	-0.21933642
138	0xd4	-0.21933642
139	0x31	0.24426101
140	0x8b	-0.58323544
141	0x41	0.3240197
142	0x48	0.35891414
143	0x0e	0.06978886
144	0xef	-0.08474361
145	0xab	-0.42371807
146	0xc1	-0.31404987
147	0xf1	-0.07477378
148	0x34	0.25921577
149	0x7f	0.63308465
150	0xfe	-0.009969837
151	0xec	-0.09969837
152	0xc7	-0.28414035
153	0x22	0.16948722
154	0x25	0.18444198
155	0xed	-0.09471345
156	0xf1	-0.07477378
157	0x39	0.28414035
158	0x35	0.2642007
159	0x14	0.09969837
160	0xe0	-0.15951739
161	0xb8	-0.35891414
162	0x1c	0.13957772
163	0xef	-0.08474361
164	0xd1	-0.23429117
165	0x30	0.23927608
166	0xf4	-0.05981902
167	0x2d	0.22432134
168	0xff	-0.0049849185
169	0x0a	0.049849186
170	0x6b	0.5333863
171	0xd5	-0.21435149
172	0x09	0.044864267
173	0xea	-0.10966821
174	0xd1	-0.23429117
175	0xd4	-0.21933642
176	0x1b	0.1345928
177	0xbc	-0.33897445
178	0x0c	0.05981902
179	0xd2	-0.22930625
180	0x1b	0.1345928
181	0xe0	-0.15951739
182	0x36	0.2691856
183	0x00	0.0
184	0xf5	-0.054834105
185	0x98	-0.51843154
186	0xc1	-0.31404987
187	0x13	0.09471345
188	0x0b	0.054834105
189	0xff	-0.0049849185
190	0xd2	-0.22930625
191	0x0d	0.06480394
192	0xfc	-0.019939674
193	0xed	-0.09471345
194	0xa0	-0.47855216
195	0xd1	-0.23429117
196	0xee	-0.089728534
197	0x2e	0.22930625
198	0x18	0.11963804
199	0x10	0.079758696
200	0x50	0.3987935
201	0xf0	-0.079758696
202	0x29	0.20438166
203	0x61	0.4835371
204	0xf3	-0.06480394
205	0xd8	-0.19939674
206	0x17	0.114653125
207	0xd3	-0.22432134
208	0x0a	0.049849186
209	0x1d	0.14456263
210	0x34	0.25921577
211	0xb6	-0.36888397
212	0xd8	-0.19939674
213	0x0f	0.07477378
214	0xb3	-0.3838387
215	0x20	0.15951739
216	0xd2	-0.22930625
217	0x23	0.17447215
218	0x5b	0.4536276
219	0x08	0.039879348
220	0x06	0.02990951
221	0x13	0.09471345
222	0xc5	-0.29411018
223	0x1e	0.14954756
224	0xd9	-0.19441183
225	0x13	0.09471345
226	0xe4	-0.13957772
227	0xfb	-0.024924593
228	0x13	0.09471345
229	0x17	0.114653125
230	0xd8	-0.19939674
231	0x1e	0.14954756
232	0xee	-0.089728534
233	0xf0	-0.079758696
234	0x0f	0.07477378
235	0x03	0.014954755
236	0x47	0.35392922
237	0x3e	0.30906495
238	0x12	0.089728534
239	0x50	0.3987935
240	0xfa	-0.02990951
241	0xd9	-0.19441183
242	0x32	0.24924593
243	0x36	0.2691856
244	0xf3	-0.06480394
245	0xd0	-0.23927608
246	0x5a	0.44864267
247	0xe0	-0.15951739
248	0xff	-0.0049849185
249	0x2c	0.21933642
250	0x2d	0.22432134
251	0xe8	-0.11963804
252	0x22	0.16948722
253	0xeb	-0.10468329
254	0xe6	-0.12960789
255	0x2c	0.21933642

micro_kws_student2/dense_1/MatMul i1 [10, 16] scale=0.008365892 zero_point=0
0	0xbc	-0.5688807
1	0x0e	0.117122486
2	0xb6	-0.619076
3	0xfc	-0.033463567
4	0x7f	1.0624683
5	0xa7	-0.74456435
6	0x38	0.46848994
7	0xc2	-0.5186853
8	0xdb	-0.309538
9	0xed	-0.15895194
10	0xbf	-0.54378295
11	0x3e	0.5186853
12	0xca	-0.45175815
13	0x47	0.59397835
14	0xe1	-0.25934264
15	0x00	0.0
16	0x1e	0.25097674
17	0x2c	0.36809924
18	0xe8	-0.2007814
19	0x0c	0.1003907
20	0x05	0.04182946
21	0xf0	-0.13385427
22	0xbe	-0.5521489
23	0x2a	0.35136747
24	0xe8	-0.2007814
25	0x02	0.016731784
26	0xd9	-0.32626978
27	0x09	0.07529303
28	0xee	-0.15058605
29	0x2b	0.35973334
30	0xe8	-0.2007814
31	0x22	0.28444034
32	0xf7	-0.07529303
33	0x0f	0.12548837
34	0xcc	-0.43502638
35	0x3f	0.5270512
36	0xff	-0.008365892
37	0x1e	0.25097674
38	0xec	-0.16731784
39	0x1d	0.24261087
40	0xf8	-0.066927135
41	0xd8	-0.33463567
42	0xcc	-0.43502638
43	0xe6	-0.21751319
44	0xdc	-0.3011721
45	0xfe	-0.016731784
46	0x1e	0.25097674
47	0xd5	-0.35973334
48	0x0b	0.09202481
49	0xe2	-0.25097674
50	0x1d	0.24261087
51	0x09	0.07529303
52	0xc7	-0.47685584
53	0x0d	0.108756594
54	0xd2	-0.384831
55	0xc0	-0.5354171
56	0x12	0.15058605
57	0xf3	-0.108756594
58	0x02	0.016731784
59	0xe0	-0.26770854
60	0xef	-0.14222017
61	0x1d	0.24261087
62	0x01	0.008365892
63	0x05	0.04182946
64	0xf8	-0.066927135
65	0x26	0.31790388
66	0x0e	0.117122486
67	0xee	-0.15058605
68	0xea	-0.18404962
69	0xe0	-0.26770854
70	0xcc	-0.43502638
71	0xdb	-0.309538
72	0xc7	-0.47685584
73	0xe4	-0.23424497
74	0x14	0.16731784
75	0x51	0.6776372
76	0x0c	0.1003907
77	0xc5	-0.4935876
78	0x0e	0.117122486
79	0xea	-0.18404962
80	0x30	0.4015628
81	0xea	-0.18404962
82	0x15	0.17568374
83	0x12	0.15058605
84	0xf0	-0.13385427
85	0x04	0.033463567
86	0xe6	-0.21751319
87	0xe7	-0.2091473
88	0x1a	0.21751319
89	0x21	0.27607444
90	0x28	0.33463567
91	0xef	-0.14222017
92	0xbd	-0.56051475
93	0xf7	-0.07529303
94	0xe5	-0.22587907
95	0xed	-0.15895194
96	0xea	-0.18404962
97	0xdb	-0.309538
98	0x22	0.28444034
99	0xe7	-0.2091473
100	0xe5	-0.22587907
101	0xdc	-0.3011721
102	0xf1	-0.12548837
103	0x2a	0.35136747
104	0xef	-0.14222017
105	0xf6	-0.08365892
106	0x0f	0.12548837
107	0x05	0.04182946
108	0xcb	-0.44339228
109	0xdf	-0.27607444
110	0x2d	0.37646514
111	0xee	-0.15058605
112	0xcc	-0.43502638
113	0xfc	-0.033463567
114	0x20	0.26770854
115	0xe2	-0.25097674
116	0xf6	-0.08365892
117	0xf3	-0.108756594
118	0xeb	-0.17568374
119	0x2c	0.36809924
120	0xc3	-0.5103194
121	0xda	-0.31790388
122	0x30	0.4015628
123	0xfe	-0.016731784
124	0x2b	0.35973334
125	0xea	-0.18404962
126	0xf2	-0.117122486
127	0x38	0.46848994
128	0x45	0.57724655
129	0xf9	-0.058561243
130	0xd4	-0.36809924
131	0xce	-0.4182946
132	0xe7	-0.2091473
133	0xf3	-0.108756594
134	0xf7	-0.07529303
135	0x22	0.28444034
136	0x11	0.14222017
137	0xf4	-0.1003907
138	0xdd	-0.2928062
139	0x08	0.066927135
140	0x0a	0.08365892
141	0xde	-0.28444034
142	0xdc	-0.3011721
143	0x18	0.2007814
144	0x35	0.44339228
145	0x2c	0.36809924
146	0xcc	-0.43502638
147	0xc6	-0.48522174
148	0xcf	-0.4099287
149	0xf6	-0.08365892
150	0xf8	-0.066927135
151	0xfe	-0.016731784
152	0x0e	0.117122486
153	0xdf	-0.27607444
154	0x09	0.07529303
155	0x14	0.16731784
156	0xf7	-0.07529303
157	0x00	0.0
158	0x25	0.309538
159	0x02	0.016731784
